Clip/model.pth (torch, 674778 bytes, 55 tensors)

img_enc.conv1.weight f4 [6, 1, 7, 7]
0	0xbda10338	-0.07861942
1	0xbd600dfc	-0.054700837
2	0x3b96f7c3	0.004607172
3	0xbd9a0abc	-0.07521579
4	0xbe7b20b7	-0.24524198
5	0xbdc8c81a	-0.09803791
6	0x3e0a7e49	0.13524736
7	0xbcee9e43	-0.0291282
8	0xbd369f82	-0.044585712
9	0x3b81d190	0.0039617494
10	0xbda003c7	-0.078132205
11	0xbe4d4512	-0.2004588
12	0xbe49f1e3	-0.19721179
13	0x3c88fd50	0.016722351
14	0xbd090e34	-0.03346081
15	0x3e157767	0.1459633
16	0x3e4ac879	0.19803037
17	0x3e386a38	0.18009269
18	0xbdebe351	-0.115179665
19	0xbe5969fb	-0.21231835
20	0x3d4bc936	0.049752437
21	0x3e0ccab1	0.13749196
22	0xbd75c7c5	-0.06000497
23	0xbe066e97	-0.13128124
24	0xbd4aa098	-0.04946956
25	0xbe93771f	-0.2880182
26	0xbe9819ce	-0.29707187
27	0xbd889b9c	-0.06670305
28	0xbe1549f8	-0.14578998
29	0xbe756669	-0.23964848
30	0xbe7f63a8	-0.2494036
31	0xbe6662d8	-0.22498643
32	0x3b581b2d	0.0032975182
33	0xbd8d21dc	-0.06891224
34	0x3e0d7a14	0.138161
35	0x3cd5bdca	0.026091475
36	0x3cd60cec	0.026129209
37	0x3cacafe5	0.021079967
38	0x3de89ba3	0.1135781
39	0x3df9e895	0.122025646
40	0x3d96a81a	0.073562816
41	0x3dcd16c7	0.1001411
42	0x3df9e773	0.122023486
43	0x3e03a90a	0.12857452
44	0x3d702e5a	0.058637954
45	0xbdaec776	-0.08534138
46	0xbdc22e94	-0.0948154
47	0x3dad38e4	0.08458117
48	0x3d4626a8	0.04837671
49	0xbe21196f	-0.15732358
50	0xbd1f4690	-0.038885653
51	0xbe131137	-0.14362036
52	0x3cd66160	0.026169479
53	0xbcd3d76d	-0.025859559
54	0x3e17c48e	0.14821073
55	0xbcf67260	-0.030083835
56	0x3d5f7434	0.05455418
57	0xbe3084ac	-0.1723811
58	0x3ba62ac1	0.0050710146
59	0xbd00d104	-0.031449333
60	0x3d8b2be2	0.06795479
61	0xbe47796f	-0.19479917
62	0xbe59774e	-0.21236917
63	0xbe344570	-0.17604613
64	0x3cc6a9e5	0.024250934
65	0x3e19ce73	0.1502016
66	0x3d952c52	0.07283844
67	0xbdfed95e	-0.12443803
68	0xbe8990f3	-0.268684
69	0xbebed90f	-0.37274978
70	0x3c549011	0.012973801
71	0xbd535614	-0.051595762
72	0x3e4753ab	0.1946551
73	0x3e88fc8f	0.26755187
74	0x3d0bf4f0	0.034169137
75	0xbe382c2b	-0.17985599
76	0xbd437a66	-0.04772415
77	0x3d638cb1	0.055554096
78	0x3e3f6740	0.1869173
79	0x3d906088	0.07049662
80	0x3da36ded	0.07979951
81	0x3d99cca9	0.07509739
82	0xbd816b41	-0.06319285
83	0xbd03338d	-0.032031585
84	0xbd7d532d	-0.0618469
85	0x3d3332e1	0.043749694
86	0x3d3cbe07	0.04607966
87	0x3d5a8f4e	0.053359322
88	0x3ca6484e	0.02029815
89	0xbd6e4d35	-0.0581791
90	0x3e67b5fc	0.22628015
91	0xbd7218d2	-0.0591057
92	0x3cd21dd2	0.025648985
93	0x3d679609	0.05653957
94	0x3e051954	0.12997943
95	0x3c5fc028	0.013656653
96	0xbd6de2e7	-0.05807772
97	0xbd19fcb3	-0.03759451
98	0xbda27cd6	-0.07933967
99	0x3dd5e7a3	0.10444572
100	0xbdfb10b7	-0.122590475
101	0x3db08b69	0.086203404
102	0xbbbd307e	-0.005773603
103	0xbe926b16	-0.28597325
104	0xbe79c00b	-0.24389665
105	0xbc157a22	-0.009123357
106	0x3e0790d3	0.1323884
107	0xbddd9a2f	-0.10820424
108	0xbc29b3ef	-0.010357841
109	0x3d9948f3	0.07484617
110	0xbc51c87c	-0.012804147
111	0x3b9a6477	0.0047116834
112	0xbe242b58	-0.1603216
113	0xbc02029b	-0.0079351915
114	0xbce887fa	-0.028385151
115	0x3d9574e6	0.07297687
116	0x3e53cd1f	0.20683716
117	0x3e34e17f	0.17664145
118	0xbc8c1200	-0.017098427
119	0xbe2bc0ec	-0.16772813
120	0xbd2b8ca3	-0.04188217
121	0x3cd92083	0.02650476
122	0x3e2f8585	0.17140777
123	0x3e5dc219	0.21656074
124	0x3ddab66c	0.106793255
125	0x3d8ecd84	0.06972793
126	0xbded7c71	-0.11596001
127	0xbd8054d1	-0.062661774
128	0xbe81c29d	-0.2534379
129	0xbdedeb59	-0.11617155
130	0x3e06b250	0.13153958
131	0xbcc79cfa	-0.024366844
132	0x3e1903d6	0.1494287
133	0xbe260ffa	-0.16217032
134	0xbdd201d1	-0.10254253
135	0xbdc008ae	-0.093766555
136	0xbe3fdc9d	-0.18736501
137	0x3ca79172	0.020455096
138	0x3bed56c7	0.0072430107
139	0xbd969d6f	-0.07354247
140	0xbe5101cf	-0.20410846
141	0xbd720a2e	-0.05909174
142	0xbe15f170	-0.14642882
143	0xbe13e301	-0.14442064
144	0xbdab434d	-0.08362446
145	0xbdf9f8c4	-0.122056514
146	0xbc960589	-0.018313186
147	0x3dc7b357	0.09751003
148	0xbc9c2ec6	-0.019065272
149	0x3c2ac4bd	0.010422883
150	0x3dc3ccaa	0.09560521
151	0xbded4448	-0.11585289
152	0x3d8640f3	0.06555357
153	0xbe43553d	-0.19075485
154	0x3dbcb667	0.09214478
155	0xbb636a09	-0.0034700653
156	0x3de8841d	0.113533236
157	0x3d02aa90	0.031900942
158	0x3e371e9f	0.17882775
159	0x3dbe6133	0.09295883
160	0x3cf4df39	0.029891597
161	0x3e282195	0.1641906
162	0x3d3c5e43	0.045988332
163	0x3d744bac	0.05964248
164	0x3e103b04	0.14085013
165	0x3e88c415	0.267121
166	0x3e191ebd	0.14953132
167	0xbb499f20	-0.0030765012
168	0x3e24baee	0.16086933
169	0x3e106202	0.14099887
170	0x3dc46ec7	0.095914416
171	0x3e31f9ff	0.17380522
172	0x3e32dce8	0.17467082
173	0x3de0231b	0.10944196
174	0xbcb3cc28	-0.021947935
175	0x3c7d9ec5	0.015479748
176	0xbd594b49	-0.053050313
177	0x3c29edae	0.010371609
178	0x3c9eb55f	0.019373594
179	0xbddc7e67	-0.10766297
180	0x3b31c08c	0.0027122824
181	0x3b51158e	0.0031903717
182	0xbadc60eb	-0.0016813552
183	0xbe191a31	-0.14951397
184	0xbe206dfe	-0.15666959
185	0xbe4165df	-0.18886517
186	0xbc0cca71	-0.008593188
187	0xbc049214	-0.008091468
188	0x3d75cf02	0.06001187
189	0xbe30e191	-0.17273547
190	0xbd978132	-0.07397689
191	0xbcbe9ea9	-0.023269014
192	0xbd1455ca	-0.036214627
193	0xba9fd726	-0.0012194857
194	0x3df5ee44	0.12008336
195	0xbc2dae33	-0.010600614
196	0xbddb1b56	-0.10698573
197	0x3d340eb7	0.043959346
198	0x3d8aa166	0.067690656
199	0x3ca38881	0.019962551
200	0xbac907fa	-0.001533746
201	0x3da4b916	0.08043115
202	0xbd3c4c6e	-0.045971327
203	0x3bdfcda4	0.006829934
204	0x3cae82e7	0.021302653
205	0x3e622e36	0.2208794
206	0x3e367180	0.17816734
207	0x3e207498	0.15669477
208	0xbd9efa33	-0.077625655
209	0x3d0ca00f	0.03433233
210	0xbc308904	-0.010774855
211	0x3dc847b0	0.09779298
212	0x3e6ae174	0.22937566
213	0x3c40aa48	0.011759348
214	0x3c13e5fa	0.009026999
215	0xbe0865ee	-0.13320133
216	0xbdebd3c2	-0.11514999
217	0xbd5b0d56	-0.053479515
218	0xbd86484f	-0.065567605
219	0x3e22cfcf	0.15899585
220	0x3d9fbfe7	0.07800274
221	0xbdbde4a6	-0.09272127
222	0xbd76f563	-0.060292613
223	0xbe26bfcf	-0.16284107
224	0xbd9c2677	-0.07624524
225	0x3dbed65d	0.0931823
226	0x3dc1252c	0.09430918
227	0x3da90d46	0.08254485
228	0xbe65c3c3	-0.22437958
229	0xbe583432	-0.21113661
230	0x3d11ee46	0.035627626
231	0x3dba4371	0.09094895
232	0x3d9d0727	0.0766738
233	0x3e1b8ada	0.15189686
234	0x3c61aad6	0.013773641
235	0x3ca43896	0.020046514
236	0xbe37bb52	-0.17942551
237	0xbde536ee	-0.11192118
238	0x3db96e9e	0.09054302
239	0xbd2eacce	-0.04264527
240	0xbd91196d	-0.07084928
241	0xbe578969	-0.21048512
242	0xbe026648	-0.1273433
243	0xbe425693	-0.18978338
244	0x3dad168a	0.084515646
245	0x3dc611b9	0.09671349
246	0x3c706d1b	0.01467445
247	0x3bd4474e	0.0064782267
248	0xbdbd8011	-0.09252942
249	0x3c8eaf60	0.01741761
250	0xbe51465f	-0.20437
251	0xbe0dfdba	-0.1386632
252	0xbb392c63	-0.0028255216
253	0x3e1ecb46	0.1550723
254	0xbc0e8657	-0.008699021
255	0xbdf959ca	-0.12175329

img_enc.conv1.bias f4 [6]
0	0x3dc3b250	0.09555495
1	0x3e051024	0.12994438
2	0x3cde0ea6	0.027106594
3	0xbd106c4e	-0.035259537
4	0xbe14615d	-0.14490266
5	0x3d32f69e	0.043692224

img_enc.bn1.weight f4 [64]
0	0x3f800000	1.0
1	0x3f800000	1.0
2	0x3f800000	1.0
3	0x3f800000	1.0
4	0x3f800000	1.0
5	0x3f800000	1.0
6	0x3f800000	1.0
7	0x3f800000	1.0
8	0x3f800000	1.0
9	0x3f800000	1.0
10	0x3f800000	1.0
11	0x3f800000	1.0
12	0x3f800000	1.0
13	0x3f800000	1.0
14	0x3f800000	1.0
15	0x3f800000	1.0
16	0x3f800000	1.0
17	0x3f800000	1.0
18	0x3f800000	1.0
19	0x3f800000	1.0
20	0x3f800000	1.0
21	0x3f800000	1.0
22	0x3f800000	1.0
23	0x3f800000	1.0
24	0x3f800000	1.0
25	0x3f800000	1.0
26	0x3f800000	1.0
27	0x3f800000	1.0
28	0x3f800000	1.0
29	0x3f800000	1.0
30	0x3f800000	1.0
31	0x3f800000	1.0
32	0x3f800000	1.0
33	0x3f800000	1.0
34	0x3f800000	1.0
35	0x3f800000	1.0
36	0x3f800000	1.0
37	0x3f800000	1.0
38	0x3f800000	1.0
39	0x3f800000	1.0
40	0x3f800000	1.0
41	0x3f800000	1.0
42	0x3f800000	1.0
43	0x3f800000	1.0
44	0x3f800000	1.0
45	0x3f800000	1.0
46	0x3f800000	1.0
47	0x3f800000	1.0
48	0x3f800000	1.0
49	0x3f800000	1.0
50	0x3f800000	1.0
51	0x3f800000	1.0
52	0x3f800000	1.0
53	0x3f800000	1.0
54	0x3f800000	1.0
55	0x3f800000	1.0
56	0x3f800000	1.0
57	0x3f800000	1.0
58	0x3f800000	1.0
59	0x3f800000	1.0
60	0x3f800000	1.0
61	0x3f800000	1.0
62	0x3f800000	1.0
63	0x3f800000	1.0

img_enc.bn1.bias f4 [64]
0	0x00000000	0.0
1	0x00000000	0.0
2	0x00000000	0.0
3	0x00000000	0.0
4	0x00000000	0.0
5	0x00000000	0.0
6	0x00000000	0.0
7	0x00000000	0.0
8	0x00000000	0.0
9	0x00000000	0.0
10	0x00000000	0.0
11	0x00000000	0.0
12	0x00000000	0.0
13	0x00000000	0.0
14	0x00000000	0.0
15	0x00000000	0.0
16	0x00000000	0.0
17	0x00000000	0.0
18	0x00000000	0.0
19	0x00000000	0.0
20	0x00000000	0.0
21	0x00000000	0.0
22	0x00000000	0.0
23	0x00000000	0.0
24	0x00000000	0.0
25	0x00000000	0.0
26	0x00000000	0.0
27	0x00000000	0.0
28	0x00000000	0.0
29	0x00000000	0.0
30	0x00000000	0.0
31	0x00000000	0.0
32	0x00000000	0.0
33	0x00000000	0.0
34	0x00000000	0.0
35	0x00000000	0.0
36	0x00000000	0.0
37	0x00000000	0.0
38	0x00000000	0.0
39	0x00000000	0.0
40	0x00000000	0.0
41	0x00000000	0.0
42	0x00000000	0.0
43	0x00000000	0.0
44	0x00000000	0.0
45	0x00000000	0.0
46	0x00000000	0.0
47	0x00000000	0.0
48	0x00000000	0.0
49	0x00000000	0.0
50	0x00000000	0.0
51	0x00000000	0.0
52	0x00000000	0.0
53	0x00000000	0.0
54	0x00000000	0.0
55	0x00000000	0.0
56	0x00000000	0.0
57	0x00000000	0.0
58	0x00000000	0.0
59	0x00000000	0.0
60	0x00000000	0.0
61	0x00000000	0.0
62	0x00000000	0.0
63	0x00000000	0.0

img_enc.bn1.running_mean f4 [64]
0	0x00000000	0.0
1	0x00000000	0.0
2	0x00000000	0.0
3	0x00000000	0.0
4	0x00000000	0.0
5	0x00000000	0.0
6	0x00000000	0.0
7	0x00000000	0.0
8	0x00000000	0.0
9	0x00000000	0.0
10	0x00000000	0.0
11	0x00000000	0.0
12	0x00000000	0.0
13	0x00000000	0.0
14	0x00000000	0.0
15	0x00000000	0.0
16	0x00000000	0.0
17	0x00000000	0.0
18	0x00000000	0.0
19	0x00000000	0.0
20	0x00000000	0.0
21	0x00000000	0.0
22	0x00000000	0.0
23	0x00000000	0.0
24	0x00000000	0.0
25	0x00000000	0.0
26	0x00000000	0.0
27	0x00000000	0.0
28	0x00000000	0.0
29	0x00000000	0.0
30	0x00000000	0.0
31	0x00000000	0.0
32	0x00000000	0.0
33	0x00000000	0.0
34	0x00000000	0.0
35	0x00000000	0.0
36	0x00000000	0.0
37	0x00000000	0.0
38	0x00000000	0.0
39	0x00000000	0.0
40	0x00000000	0.0
41	0x00000000	0.0
42	0x00000000	0.0
43	0x00000000	0.0
44	0x00000000	0.0
45	0x00000000	0.0
46	0x00000000	0.0
47	0x00000000	0.0
48	0x00000000	0.0
49	0x00000000	0.0
50	0x00000000	0.0
51	0x00000000	0.0
52	0x00000000	0.0
53	0x00000000	0.0
54	0x00000000	0.0
55	0x00000000	0.0
56	0x00000000	0.0
57	0x00000000	0.0
58	0x00000000	0.0
59	0x00000000	0.0
60	0x00000000	0.0
61	0x00000000	0.0
62	0x00000000	0.0
63	0x00000000	0.0

img_enc.bn1.running_var f4 [64]
0	0x3f800000	1.0
1	0x3f800000	1.0
2	0x3f800000	1.0
3	0x3f800000	1.0
4	0x3f800000	1.0
5	0x3f800000	1.0
6	0x3f800000	1.0
7	0x3f800000	1.0
8	0x3f800000	1.0
9	0x3f800000	1.0
10	0x3f800000	1.0
11	0x3f800000	1.0
12	0x3f800000	1.0
13	0x3f800000	1.0
14	0x3f800000	1.0
15	0x3f800000	1.0
16	0x3f800000	1.0
17	0x3f800000	1.0
18	0x3f800000	1.0
19	0x3f800000	1.0
20	0x3f800000	1.0
21	0x3f800000	1.0
22	0x3f800000	1.0
23	0x3f800000	1.0
24	0x3f800000	1.0
25	0x3f800000	1.0
26	0x3f800000	1.0
27	0x3f800000	1.0
28	0x3f800000	1.0
29	0x3f800000	1.0
30	0x3f800000	1.0
31	0x3f800000	1.0
32	0x3f800000	1.0
33	0x3f800000	1.0
34	0x3f800000	1.0
35	0x3f800000	1.0
36	0x3f800000	1.0
37	0x3f800000	1.0
38	0x3f800000	1.0
39	0x3f800000	1.0
40	0x3f800000	1.0
41	0x3f800000	1.0
42	0x3f800000	1.0
43	0x3f800000	1.0
44	0x3f800000	1.0
45	0x3f800000	1.0
46	0x3f800000	1.0
47	0x3f800000	1.0
48	0x3f800000	1.0
49	0x3f800000	1.0
50	0x3f800000	1.0
51	0x3f800000	1.0
52	0x3f800000	1.0
53	0x3f800000	1.0
54	0x3f800000	1.0
55	0x3f800000	1.0
56	0x3f800000	1.0
57	0x3f800000	1.0
58	0x3f800000	1.0
59	0x3f800000	1.0
60	0x3f800000	1.0
61	0x3f800000	1.0
62	0x3f800000	1.0
63	0x3f800000	1.0

img_enc.block1.conv1.weight f4 [12, 6, 3, 3]
0	0x3d1f0b4a	0.038829125
1	0x3d259484	0.04042484
2	0xbd14918f	-0.036271628
3	0xbd26ae7f	-0.040693756
4	0x3d84ff0a	0.06493957
5	0x3e85a7aa	0.2610448
6	0x3cdd2b64	0.02699823
7	0xbd952ef6	-0.07284348
8	0xbd30bfcf	-0.043151673
9	0x3e1a79c3	0.15085511
10	0x3e193b14	0.14963943
11	0x3dd687fa	0.10475154
12	0x3d93d464	0.07218245
13	0x3c6b0eb1	0.014346764
14	0xbdd32439	-0.10309643
15	0xbe946a88	-0.28987527
16	0xbdbb4860	-0.09144664
17	0xbc1b12ab	-0.0094649
18	0xbe73295d	-0.23746248
19	0xbe33b8c3	-0.1755095
20	0xbd9e4f06	-0.07729916
21	0xbd216e0a	-0.039411582
22	0x3e101ef7	0.14074312
23	0x3e7becfc	0.24602121
24	0x3ceb1431	0.028696151
25	0x3d60f9f3	0.05492587
26	0xbc5f0c12	-0.013613718
27	0xbc0cee24	-0.008601699
28	0xbd151f79	-0.036406968
29	0xbe0f99c6	-0.14023504
30	0x3b4f270d	0.003160897
31	0x3da7cd32	0.08193435
32	0xbda7ad34	-0.08187333
33	0x3ddf13ea	0.1089247
34	0x3e31db4c	0.17368811
35	0x3d834903	0.0641041
36	0xbe3441b0	-0.17603183
37	0x3dd3aa99	0.10335273
38	0x3d965625	0.073406495
39	0xbe513a41	-0.20432378
40	0xbd8cc898	-0.06874198
41	0xbe0316a1	-0.12801601
42	0x3dba2d5e	0.09090684
43	0xbd93ede0	-0.072231054
44	0xbcf83fbf	-0.030303834
45	0x37d6b064	2.5592926e-05
46	0xbe664a1a	-0.22489205
47	0xbe6cfab6	-0.23142514
48	0x3e4a7157	0.19769798
49	0x3d37d145	0.04487731
50	0x3c80a9f1	0.015706034
51	0x3e3571eb	0.17719238
52	0x3d45664e	0.04819327
53	0x3cea1a3b	0.02857696
54	0x3d81bbee	0.06334673
55	0x3e5cfe53	0.21581392
56	0x3d9773b2	0.07395114
57	0x3e2136ce	0.15743563
58	0x3bdac171	0.006675892
59	0xbdb51d56	-0.08843486
60	0x3e0d5138	0.13800514
61	0x3d6b9411	0.057514254
62	0x3d2f1eff	0.04275417
63	0x3c992b03	0.018697267
64	0xbd1b20e5	-0.037873168
65	0xbe0291f5	-0.1275099
66	0xba0ffbde	-0.0005492548
67	0xbdd24769	-0.10267527
68	0xbe224402	-0.15846255
69	0xbe358ff7	-0.177307
70	0xbe316dda	-0.17327061
71	0xbe0ff567	-0.14058457
72	0xbd59f4e8	-0.053212076
73	0xbd793df5	-0.060850102
74	0x3d651654	0.055929497
75	0xbdeb0c0e	-0.114769086
76	0x3dd73513	0.1050817
77	0x3e05123e	0.1299524
78	0x3c89754a	0.01677956
79	0xbe8edfaa	-0.27905017
80	0xbd8923a4	-0.06696251
81	0xbd7be8b8	-0.061501235
82	0xbd16e9f1	-0.036844198
83	0x3b84e481	0.00405556
84	0xbb1e3ec9	-0.002414631
85	0xbd9e4b1c	-0.0772917
86	0x3db96022	0.09051539
87	0x3dbc3040	0.091888905
88	0xbd76eae6	-0.06028261
89	0x3dbcc576	0.0921735
90	0xbe33c2dd	-0.17554803
91	0xbe1e326f	-0.15448926
92	0xbdddbb51	-0.108267434
93	0xbda5f5bc	-0.08103511
94	0xbdfbbd36	-0.122919485
95	0xbd076793	-0.03305776
96	0xbe46b345	-0.19404323
97	0x3e0a1b5c	0.13487
98	0xbd18c1d6	-0.03729423
99	0xbe60d0b2	-0.21954611
100	0xbe780125	-0.24219187
101	0xbea364e2	-0.31912905
102	0xbe0d2ed9	-0.13787402
103	0xbe65222a	-0.22376314
104	0xbe835fe0	-0.25659084
105	0xbe77ebcf	-0.24211048
106	0xbd3dc787	-0.046332862
107	0xbd8a05e1	-0.067394026
108	0xbe052466	-0.13002166
109	0xbdcaa039	-0.09893841
110	0x3bbf14f3	0.0058313548
111	0xbdbd629e	-0.09247325
112	0xbcd724e7	-0.026262714
113	0x3e0c81ce	0.13721392
114	0xbd9292cf	-0.07156908
115	0xbdf9a2f7	-0.12189286
116	0x3dcef50c	0.10105333
117	0x3dd80222	0.10547282
118	0xbe0451ab	-0.12921779
119	0xbd06bb12	-0.032893248
120	0xbe108b08	-0.14115536
121	0xbd0c344e	-0.03422957
122	0xbd9e5c73	-0.07732477
123	0xbe16c714	-0.1472438
124	0xbba1f33b	-0.0049423254
125	0x3e5a3b6f	0.21311735
126	0x3e0ea5b2	0.13930395
127	0xbc1b0ac5	-0.009463017
128	0x3dcf7bfd	0.10131071
129	0x3e00061f	0.12502335
130	0x3e032f23	0.1281095
131	0xbccadb5b	-0.0247628
132	0x3ded1d28	0.11577827
133	0x3e3965dd	0.18105264
134	0x3bd3073f	0.006440073
135	0x3da99df9	0.08282084
136	0xbe2d4c51	-0.16923644
137	0xbe682b61	-0.22672798
138	0xbdb58a38	-0.08864254
139	0xbe0059b6	-0.12534222
140	0x3cbf8123	0.023377007
141	0x3e545562	0.20735696
142	0x3e1a8e7e	0.15093419
143	0x3d90b34d	0.07065449
144	0xbd9169bf	-0.071002476
145	0x3df00b51	0.117209084
146	0xbd515a8b	-0.05111174
147	0x3e1b85fd	0.15187831
148	0x3de816b2	0.11332454
149	0x3d12a21b	0.035799127
150	0xbcaad4bd	-0.020853395
151	0xbe1e8d28	-0.15483534
152	0xbd433c48	-0.04766491
153	0x3d853e92	0.06506075
154	0x3d9d9df5	0.076961435
155	0x3ce65266	0.028115463
156	0x3dc8d068	0.09805375
157	0xbc1e1816	-0.009649297
158	0xbe1a2635	-0.15053637
159	0x3c474778	0.012163036
160	0xbe02a1bf	-0.12757014
161	0xbdd0a704	-0.10188106
162	0xbdf93034	-0.12167397
163	0xbe8c5ea5	-0.27415958
164	0xbe7fc739	-0.24978341
165	0xbe1c1df8	-0.15245807
166	0x3cde883d	0.027164573
167	0x3ab44283	0.0013752732
168	0x3e04553a	0.12923136
169	0x3d0e9892	0.03481347
170	0x3d963598	0.07334441
171	0xbe7e0cfc	-0.2480964
172	0x3da7c00e	0.081909284
173	0x3e749683	0.2388554
174	0xbe848027	-0.25879022
175	0x3df5eaf2	0.12007703
176	0x3e57a308	0.21058285
177	0xbdf8e710	-0.12153447
178	0xbc88fa3d	-0.016720885
179	0x3e550b74	0.2080515
180	0xbd9de350	-0.07709372
181	0x3c58adb8	0.0132250115
182	0x3dc6988f	0.09697067
183	0xbb8745d2	-0.0041281963
184	0x3e8289d9	0.25495794
185	0xbd72ed6d	-0.059308458
186	0x3db704a1	0.0893643
187	0x3dacd08a	0.08438213
188	0xbdd4021e	-0.10351966
189	0xbda96d9d	-0.0827286
190	0xbddab4cd	-0.10679016
191	0xbbce1dec	-0.006290188
192	0xbd9196d6	-0.07108848
193	0xbd329498	-0.04359874
194	0xbdca509a	-0.09878655
195	0xbe0d4e62	-0.13799432
196	0xbe0e9f59	-0.13927974
197	0xbe016ec7	-0.12639914
198	0x3e21f4ac	0.15815991
199	0xbd1e7eed	-0.038695265
200	0x3c844592	0.016146455
201	0xbe16c179	-0.14722241
202	0xbd853e33	-0.06506004
203	0xbd75e1a2	-0.060029633
204	0xbd270b75	-0.04078241
205	0xbc531b8d	-0.012884987
206	0x3d49d7a4	0.049277917
207	0xbcd2d3c8	-0.02573575
208	0x3c3e6579	0.011620873
209	0xbc097bfd	-0.0083913775
210	0x3e14dcc6	0.14537343
211	0xbdb76de8	-0.0895651
212	0xbc8f4d23	-0.017492836
213	0xbd24ffaa	-0.040282883
214	0xbd40dfec	-0.04708855
215	0xbbf19a74	-0.0073731486
216	0xbcec5716	-0.02885012
217	0x3defb3a9	0.11704189
218	0x3e0e4852	0.13894776
219	0x3d1a56a5	0.037680287
220	0x3bc19e54	0.0059087668
221	0x3d1aa088	0.03775075
222	0x3dd53cc6	0.10411982
223	0xbd1ba729	-0.038001213
224	0x3ca36092	0.01994351
225	0xbd84cd08	-0.06484419
226	0xbbab2153	-0.0052224784
227	0x3c194f46	0.009357279
228	0x3d778c3a	0.060436465
229	0xbb04f675	-0.0020288501
230	0xbd68e419	-0.056858156
231	0xbdc6a1fc	-0.09698865
232	0xbe096818	-0.13418615
233	0xbe65b890	-0.22433686
234	0xbe2cc7af	-0.16873048
235	0xbd18af1a	-0.037276365
236	0x3da9aed9	0.08285303
237	0xbd0fdc5c	-0.03512226
238	0xbdec658a	-0.115428045
239	0x3e17560a	0.14778915
240	0xbe196082	-0.14978221
241	0xbe136e43	-0.1439753
242	0xbd92eeee	-0.071744785
243	0xbcf2d2ea	-0.029641587
244	0xbdad7edd	-0.08471463
245	0x39d112d5	0.00039877617
246	0xbde14f46	-0.11001448
247	0xbe1df0a3	-0.15423827
248	0x3dbbb881	0.09166051
249	0xbcf23e51	-0.02957073
250	0x3c3be6dd	0.011468616
251	0x3dab7663	0.0837219
252	0x3c3e80e3	0.011627409
253	0xbdde37a0	-0.108504534
254	0xbe07c9c6	-0.13260564
255	0x3da0f52f	0.07859265

img_enc.block1.conv1.bias f4 [12]
0	0xbdcc7d31	-0.09984816
1	0xbd5873d7	-0.05284485
2	0x3c5523a1	0.013008983
3	0xbdccebf8	-0.10005945
4	0x3cfa8001	0.030578615
5	0xbc9cdba3	-0.0191477
6	0x3d8e41ad	0.069461204
7	0x3dcce63d	0.10004852
8	0x3c8d7081	0.01726556
9	0x3d617af4	0.055048898
10	0x3d90d80a	0.07072456
11	0xbddc8253	-0.10767045

img_enc.block1.bn1.weight f4 [12]
0	0x3f845928	1.0339708
1	0x3f89e210	1.0772114
2	0x3f6eb069	0.9323793
3	0x3f877132	1.058142
4	0x3f85f915	1.0466639
5	0x3f884126	1.0644882
6	0x3f8b7fe5	1.0898405
7	0x3f305940	0.68886185
8	0x3f857285	1.0425574
9	0x3f753f67	0.9579987
10	0x3f6efae6	0.9335159
11	0x3f5bf47a	0.85919917

img_enc.block1.bn1.bias f4 [12]
0	0xbe2857cb	-0.1643974
1	0xbdf515b7	-0.119670324
2	0xbe5625f5	-0.20912917
3	0xbc37c83b	-0.011217172
4	0xbd37f6c4	-0.04491307
5	0x3c400d5e	0.011721937
6	0xbddcf6f8	-0.10789293
7	0xbe733b1d	-0.23753019
8	0xbd84ddda	-0.06487627
9	0xbe10cfba	-0.14141741
10	0xbe5911a6	-0.21198139
11	0xbddb8bb3	-0.10720005

img_enc.block1.bn1.running_mean f4 [12]
0	0xbd9e5d3d	-0.077326275
1	0xbec5c7f8	-0.38629127
2	0xbd2d80ae	-0.042359047
3	0xbe8c8a80	-0.27449417
4	0xbe658db7	-0.22417341
5	0xbe7a4ce9	-0.24443401
6	0xbde0d884	-0.10978797
7	0x3ebba5fc	0.36650074
8	0xbe141565	-0.14461286
9	0xbca8d0e9	-0.020607429
10	0xbd2ea2d6	-0.04263576
11	0x3d50fc54	0.05102189

img_enc.block1.bn1.running_var f4 [12]
0	0x3d7733d0	0.060352147
1	0x3e28619d	0.16443487
2	0x3cb7fab5	0.022458414
3	0x3db71b2d	0.0894073
4	0x3de67562	0.11252858
5	0x3db5e627	0.08881789
6	0x3dc81ddb	0.097713195
7	0x3e21eb70	0.15812469
8	0x3ddfb92a	0.10923989
9	0x3db95c3f	0.09050798
10	0x3d785ee5	0.060637373
11	0x3e0939c7	0.13400947

img_enc.block1.conv2.weight f4 [12, 12, 3, 3]
0	0x3c47a1ac	0.012184542
1	0xbd7ea89c	-0.062172517
2	0x3d2da7e6	0.04239645
3	0xbd44014b	-0.047852796
4	0xbcf36bd6	-0.029714506
5	0xbdd0ffa8	-0.102050126
6	0x3cd5e4f4	0.02611015
7	0xbde0f86b	-0.10984882
8	0xbd0b29c6	-0.033975385
9	0xbd066ec6	-0.032820486
10	0xbe0ce1a6	-0.13757953
11	0x3c07dd06	0.008292442
12	0xbd3a9afa	-0.045557953
13	0xbe4ba00c	-0.19885272
14	0xbc666713	-0.014062661
15	0xbc08718f	-0.008327856
16	0xbd539e1d	-0.05166446
17	0xbc90eea5	-0.01769192
18	0xbdf70431	-0.12061346
19	0xbdd4cdef	-0.10390841
20	0xbe2938c2	-0.16525558
21	0x3d863719	0.06553478
22	0xbccaa2f3	-0.024735903
23	0x3c6055ef	0.013692363
24	0xbc525a52	-0.012838917
25	0x3dfd6120	0.12372041
26	0x3ce5d5e6	0.028056096
27	0x3e50c235	0.20386584
28	0x3e5a250f	0.21303199
29	0x3e319b17	0.17344318
30	0x3c6db43c	0.014508303
31	0xbb7cf4bf	-0.0038598028
32	0xbbef664b	-0.0073058954
33	0x3e0e88b9	0.13919343
34	0x3c8f8024	0.017517157
35	0x3d8256ba	0.06364198
36	0x3df3dfae	0.11907898
37	0xbde20569	-0.11036188
38	0xbd343b8c	-0.0440021
39	0x3bcf1421	0.006319538
40	0xbd38129e	-0.04493963
41	0xbd445a57	-0.047937717
42	0x3ddc16ba	0.10746522
43	0xbd523694	-0.05132158
44	0x3dd05636	0.101726934
45	0xbe161ee8	-0.14660227
46	0xbd92cf8e	-0.07168494
47	0xbb3b2b50	-0.0028559752
48	0xbe2cac03	-0.16862492
49	0xbd90c448	-0.07068688
50	0x3d1f44c9	0.038883958
51	0xbea506b5	-0.3223168
52	0xbe76213a	-0.24036112
53	0xbbc9c013	-0.0061569302
54	0xbd1656a3	-0.036703717
55	0x3d06ee95	0.032942373
56	0x3deb2df2	0.11483373
57	0x3d5ea0e5	0.05435266
58	0x3d90baf3	0.07066908
59	0x3da1e302	0.079046264
60	0xbd967b26	-0.073477075
61	0xbe1b8b60	-0.15189886
62	0xb9ec263a	-0.0004504191
63	0xbdd3e18e	-0.103457555
64	0xbdb0a058	-0.08624333
65	0x3d91f4f8	0.07126802
66	0xbc6fefb6	-0.014644554
67	0xbd8d8dcd	-0.06911812
68	0x3c07d2bc	0.008289989
69	0xbdc73a0d	-0.09727869
70	0x3ca65be7	0.020307494
71	0x3d0092c6	0.031389974
72	0xbd8cdab4	-0.06877652
73	0xbc8e5ed5	-0.017379204
74	0xbe40b2aa	-0.18818155
75	0xbe085b2a	-0.13316026
76	0xbe0579c8	-0.13034737
77	0xbe13cf07	-0.14434443
78	0x3d897215	0.067112125
79	0xbd2b23fe	-0.04178237
80	0xbdbd6ba9	-0.0924905
81	0xbdbd4620	-0.09241891
82	0xbce74185	-0.028229484
83	0xbd1c2e75	-0.038130242
84	0xbd8ca3a3	-0.06867149
85	0xbe117fb7	-0.14208876
86	0xbd8e90f3	-0.069612406
87	0x3d154335	0.036441047
88	0xbc9c9b0d	-0.019116903
89	0xbc63ee42	-0.013911786
90	0xbe168826	-0.14700374
91	0x3cb5fa2a	0.022214014
92	0x3d3c984a	0.04604367
93	0xbdcfcbf0	-0.1014632
94	0xbe0ff4f6	-0.14058289
95	0x3c8c69f2	0.017140362
96	0xbdee964f	-0.11649763
97	0xbd50272e	-0.050818615
98	0xbd95215d	-0.07281754
99	0xbe53077b	-0.20608322
100	0xbe0ba41f	-0.13636826
101	0x3c93a06c	0.018020831
102	0xbddecb7a	-0.10878654
103	0xbd598840	-0.053108454
104	0xbb359718	-0.0027708467
105	0x3cfb5c1c	0.03068357
106	0x3c19ca11	0.009386555
107	0x3d23092b	0.039803665
108	0x3d9c9157	0.07644909
109	0x3db11852	0.08647217
110	0x3e0a5758	0.13509881
111	0xbd52008f	-0.051270064
112	0xbd820175	-0.06347934
113	0x3b2a8411	0.002601866
114	0xbe639583	-0.22225003
115	0xbe0e79d9	-0.13913669
116	0xbe0b8e24	-0.13628441
117	0xbbecb505	-0.0072237276
118	0xbe00cff3	-0.12579326
119	0xbe008fc6	-0.12554845
120	0x3db6ef4b	0.0893236
121	0xbba3a8b2	-0.0049944753
122	0xbc1b7b73	-0.009489882
123	0xbb86a429	-0.004108925
124	0x3d9d4aa4	0.07680252
125	0x3db99c10	0.0906297
126	0x3e0775a5	0.13228472
127	0x3cbe8e79	0.023261296
128	0xbd7fd39c	-0.062457666
129	0xbd9cab5e	-0.07649873
130	0xbd9a665b	-0.07539054
131	0xbc1c95e1	-0.009557218
132	0xbe17a3ae	-0.14808533
133	0xbddcd138	-0.10782093
134	0x3d0a4923	0.033761155
135	0x3db27fbd	0.087157704
136	0xbd1f720c	-0.038927123
137	0x3d6766d9	0.056494568
138	0x3d804520	0.062631845
139	0x3ccee5f2	0.02525613
140	0xbcc4aad6	-0.024007242
141	0xbc8bb43f	-0.017053721
142	0x3d849bda	0.06475039
143	0xbde9d3fe	-0.114173874
144	0xbdd1083e	-0.1020665
145	0xbcd5fb9e	-0.026120957
146	0xbe30b95b	-0.17258207
147	0xbdd5fbe0	-0.10448432
148	0x3c8f90db	0.017525127
149	0xbdb0c90e	-0.08632098
150	0x3d9d1759	0.07670469
151	0x3d45eb27	0.048319962
152	0xbcc0d65d	-0.023539716
153	0x3e34b7f6	0.176483
154	0x3de70310	0.11279881
155	0xba3e7082	-0.000726469
156	0x3c814f6c	0.015784942
157	0x3d049a86	0.032373928
158	0x3a0d0332	0.0005379199
159	0xbcdcbec6	-0.026946437
160	0xbd81aa31	-0.063312896
161	0xbca55827	-0.020183636
162	0x3d91b90c	0.07115373
163	0x3cbdfdb8	0.023192272
164	0xbdf382f5	-0.118902124
165	0x3e1b30d7	0.1515535
166	0xbd94a044	-0.07257131
167	0x3d00167e	0.03127145
168	0xbae5e02a	-0.001753812
169	0xbe2160cb	-0.1575958
170	0xbdf39e36	-0.11895411
171	0x3e1b8e74	0.1519106
172	0x3cf85c26	0.030317377
173	0x3d1dd20e	0.038530402
174	0x3d99f01f	0.075165026
175	0xbd2d8daa	-0.04237143
176	0x3d2b95df	0.041890975
177	0xbbaf781f	-0.0053548957
178	0x3bdad3c7	0.006678078
179	0xbca4049b	-0.020021727
180	0x3cc80a65	0.024419019
181	0xbc09094c	-0.008364033
182	0x3d5e048e	0.054203562
183	0xbda8bbdd	-0.08238957
184	0xbde7f098	-0.113251865
185	0x3d4e3402	0.050342567
186	0xbdbf3046	-0.09335379
187	0xbe07a0d8	-0.13244951
188	0xbde4bdee	-0.11169039
189	0x3e4f50c5	0.20245655
190	0x3e2afc1a	0.16697732
191	0x3e158b6b	0.14603965
192	0xbd4a1a0c	-0.049341246
193	0x3d8ad6db	0.06779262
194	0xbd38f9c2	-0.045160063
195	0xbd7fd7a4	-0.06246151
196	0xbd682e1e	-0.056684606
197	0xbdbc4ecd	-0.091947176
198	0x3cde06b1	0.0271028
199	0xbc851f14	-0.01625017
200	0x3d0a1cc8	0.033718854
201	0x3d831d2d	0.06402049
202	0xbcb16eaa	-0.021659214
203	0x3d9ab7ec	0.075546116
204	0xbe02da8a	-0.12778679
205	0x3c30495a	0.010759676
206	0xbd340d66	-0.04395809
207	0xbc96c8e7	-0.018406345
208	0xbd340431	-0.04394931
209	0x3da92555	0.08259074
210	0xbe02cf8d	-0.12774487
211	0xbde83218	-0.113376796
212	0xbd8a2220	-0.0674479
213	0xbe5bc142	-0.21460441
214	0xbe3fe509	-0.18739714
215	0x3c516cac	0.012782257
216	0x3cb1368c	0.021632455
217	0xbd9df19d	-0.077121
218	0xbc222336	-0.00989609
219	0xbd17fd46	-0.037106775
220	0xbb90dc4c	-0.0044207927
221	0xbd5f1199	-0.05446014
222	0xbdbe3e21	-0.09289194
223	0xbd84d8fa	-0.064866975
224	0xbe035afa	-0.12827674
225	0x3d8a056a	0.06739314
226	0x3dd2c8c8	0.10292202
227	0xbdd8b858	-0.10582036
228	0x3e30bf22	0.17260411
229	0x3e0fbcca	0.14036861
230	0x3d47e87c	0.0488057
231	0x3e04ba6a	0.12961736
232	0x3e20165c	0.1563353
233	0x3e04ea59	0.12980022
234	0xbe13edcd	-0.14446183
235	0xbe313c49	-0.17308153
236	0xbd9e2549	-0.07721955
237	0x3c9d3645	0.019190917
238	0xbc91f44e	-0.017816689
239	0xbd187726	-0.037223004
240	0x3df93d12	0.12169851
241	0x3e19c281	0.15015604
242	0x3daf4be8	0.085594
243	0x3dced663	0.10099485
244	0x3e7c8223	0.24659018
245	0x3e8b8c07	0.2725527
246	0x3e0246c1	0.12722303
247	0x3e461d34	0.19347078
248	0x3e4fe968	0.20303881
249	0x3c75d1ed	0.0150036635
250	0x3d83e666	0.064404294
251	0x3d9e899d	0.077410914
252	0x3da9ac60	0.08284831
253	0xbc97c064	-0.018524356
254	0xbd153f38	-0.036437243
255	0x3e8531da	0.26014596

img_enc.block1.conv2.bias f4 [12]
0	0x3da8de65	0.082455434
1	0x3db75177	0.08951085
2	0x3dc62c10	0.09676373
3	0x3dae45c5	0.08509401
4	0x3d51b988	0.051202327
5	0x3e02fee1	0.12792541
6	0x3cf02b4f	0.029317526
7	0xbdfa1706	-0.122114226
8	0xbcab4dd3	-0.020911133
9	0xbdad72db	-0.084691726
10	0xbdc6fa03	-0.09715655
11	0x3d97bfde	0.07409643

img_enc.block1.bn2.weight f4 [12]
0	0x3f5e59c8	0.86855745
1	0x3f64429e	0.8916415
2	0x3f6c45bf	0.92293924
3	0x3f78c952	0.9718219
4	0x3f79aafb	0.9752652
5	0x3f756c5d	0.95868474
6	0x3f7412ae	0.95341
7	0x3f7eca13	0.9952709
8	0x3f7501d8	0.9570594
9	0x3f802e84	1.0014195
10	0x3f84b7dd	1.0368611
11	0x3f8093df	1.0045127

img_enc.block1.bn2.bias f4 [12]
0	0x3dd62629	0.10456497
1	0x3e5b2707	0.21401607
2	0xbdef30b0	-0.11679208
3	0xbdb5ec88	-0.088830054
4	0xbe61a307	-0.22034846
5	0xbc1021be	-0.008797107
6	0xbdc5e93c	-0.096636266
7	0x3e7eb105	0.24872215
8	0xbcda34d9	-0.026636528
9	0xb9580d22	-0.00020604258
10	0x3e51a5ec	0.2047345
11	0xbdf2d57c	-0.11857125

img_enc.block1.bn2.running_mean f4 [12]
0	0xbf48c4f3	-0.7842552
1	0xbea132d1	-0.31484082
2	0x3fda25c7	1.7042779
3	0xbd6a071e	-0.057135694
4	0xbe95f4db	-0.29288372
5	0xbf9c86a1	-1.2228585
6	0xbe4a460e	-0.19753286
7	0xbed46160	-0.4148054
8	0x3fa5583e	1.2917554
9	0xbea3b460	-0.31973553
10	0xbf841bea	-1.0321019
11	0x3e0a0d06	0.1348153

img_enc.block1.bn2.running_var f4 [12]
0	0x3f5d56cf	0.86460584
1	0x3f2ed539	0.682941
2	0x3ef7bd60	0.4838667
3	0x3ebbbb10	0.36666155
4	0x3f325d6a	0.6967379
5	0x3f43c1ac	0.76467395
6	0x3f381546	0.7190746
7	0x3fea4456	1.8302104
8	0x3f16241c	0.5864885
9	0x3f8266a4	1.0187573
10	0x3f73dbd1	0.9525729
11	0x3eb7c2f4	0.35890925

img_enc.block1.extra.0.weight f4 [12, 6, 1, 1]
0	0xbed225fe	-0.4104461
1	0x3e72dac3	0.23716263
2	0xbdbeab02	-0.09309961
3	0xbc901d8c	-0.017592214
4	0x3ef277f4	0.47357142
5	0x3d01b08a	0.0316625
6	0xbc89e97f	-0.016834972
7	0xbe0b773f	-0.13619708
8	0xbe9d714c	-0.307505
9	0x3e15bd93	0.14623098
10	0x3d6af1f6	0.05735966
11	0x3ea1571d	0.31511775
12	0xbdb3ef3e	-0.08785866
13	0x3ec67abf	0.38765523
14	0x3e910535	0.28324285
15	0x3e8642af	0.2622275
16	0x3e88ce80	0.26720047
17	0xbd41985e	-0.04726445
18	0xbdc14fe4	-0.09439066
19	0x3e330300	0.17481613
20	0x3d66ea86	0.056376003
21	0x3ed72833	0.42022857
22	0x3d8cefc4	0.06881669
23	0xbe550a00	-0.20804596
24	0x3e5db306	0.21650323
25	0xbd915ada	-0.07097407
26	0xbefeaba0	-0.49740314
27	0x3e1a7078	0.15081966
28	0xbeada8b4	-0.33917773
29	0xbea13619	-0.31486586
30	0xbec7366c	-0.38908708
31	0xbeb51643	-0.35368547
32	0xbe6a24e4	-0.22865635
33	0x3e2613f3	0.16218548
34	0xbe458bcc	-0.1929161
35	0x3ea4488a	0.32086593
36	0xbecf960e	-0.4054417
37	0x3eac938b	0.33706316
38	0xbe940a7a	-0.28914243
39	0xbe762de7	-0.24040948
40	0xbeb27d97	-0.34861442
41	0x3e399658	0.18123758
42	0xbd9618da	-0.07328959
43	0xbd2dfece	-0.04247933
44	0xbe6d079c	-0.23147434
45	0x3ee9a080	0.45630264
46	0xbe833519	-0.25626448
47	0xbd4453e6	-0.047931574
48	0xbdbea264	-0.09308317
49	0x3e791543	0.24324517
50	0xbdc14ba7	-0.09438258
51	0xbe8f69de	-0.28010458
52	0x3e818933	0.25299987
53	0xbdac4314	-0.08411232
54	0xbe36be92	-0.17846134
55	0x3d90e234	0.07074395
56	0xbe61c3ed	-0.22047396
57	0x3d8a91af	0.06766068
58	0x3f0bef64	0.54662156
59	0x3eb7d9c5	0.35908332
60	0xbea2423c	-0.31691158
61	0xbe150d9f	-0.14555977
62	0xbec103c4	-0.37698185
63	0xbebc75da	-0.36808664
64	0x3e248022	0.16064504
65	0xbde49786	-0.11161713
66	0xbcb6e34b	-0.022325179
67	0xbd65fbad	-0.05614822
68	0xbe4fdd86	-0.20299348
69	0xbef1f29d	-0.47255412
70	0xbe16730a	-0.14692321
71	0xbe13b08c	-0.14422816

img_enc.block1.extra.0.bias f4 [12]
0	0x3dbd6668	0.09248048
1	0xbdc20ff8	-0.09475702
2	0x3ddfe5fe	0.109325394
3	0xbe980fd5	-0.2969958
4	0xbe76b788	-0.24093449
5	0xbc8a161b	-0.016856244
6	0xbe75ef9d	-0.24017186
7	0xbe039216	-0.12848696
8	0x3eb0d307	0.34536
9	0xbb84fd8d	-0.004058546
10	0x3e476b53	0.19474535
11	0x3e928f7e	0.286251

img_enc.block1.extra.1.weight f4 [12]
0	0x3f8a4820	1.0803261
1	0x3f83cbdd	1.0296589
2	0x3f8484c7	1.035302
3	0x3f87e0ae	1.0615442
4	0x3f8416f5	1.0319506
5	0x3f826d6d	1.0189644
6	0x3f8df985	1.1091772
7	0x3f80dc08	1.0067148
8	0x3f7ea850	0.99475574
9	0x3f86629a	1.0498841
10	0x3f78a826	0.97131574
11	0x3f81df80	1.0146332

img_enc.block1.extra.1.bias f4 [12]
0	0x3dd62629	0.10456497
1	0x3e5b2707	0.21401607
2	0xbdef30b0	-0.11679208
3	0xbdb5ec88	-0.088830054
4	0xbe61a307	-0.22034846
5	0xbc1021be	-0.008797107
6	0xbdc5e93c	-0.096636266
7	0x3e7eb105	0.24872215
8	0xbcda34d9	-0.026636528
9	0xb9580d22	-0.00020604258
10	0x3e51a5ec	0.2047345
11	0xbdf2d57c	-0.11857125

img_enc.block1.extra.1.running_mean f4 [12]
0	0x3e0419ed	0.12900515
1	0xbd8be1c2	-0.06830169
2	0x3e7bb436	0.24580464
3	0xbe548886	-0.20755205
4	0xbe949843	-0.29022416
5	0xbd94fceb	-0.07274803
6	0xbe92a6dc	-0.2864293
7	0xbdb81c07	-0.08989721
8	0x3eaa1b08	0.33223748
9	0x3d98a13d	0.07452629
10	0x3d5e26ff	0.05423641
11	0x3e17959e	0.14803168

img_enc.block1.extra.1.running_var f4 [12]
0	0x3cb94f38	0.022620782
1	0x3c0e001c	0.008667018
2	0x3d04d0f6	0.032425843
3	0x3cdb2642	0.026751641
4	0x3c5a95e3	0.0133414
5	0x3c919076	0.01776908
6	0x3ca6decf	0.020369915
7	0x3ca8ac2c	0.02058991
8	0x3c875562	0.016520206
9	0x3cfff2cb	0.031243702
10	0x3ccca816	0.024982493
11	0x3d442e4c	0.047895715

img_enc.block2.conv1.weight f4 [24, 12, 3, 3]
0	0xbd22a1cf	-0.039705094
1	0x3dfec410	0.1243974
2	0x3d605799	0.05477104
3	0xbcdd53c3	-0.02701748
4	0xbce28eec	-0.027656041
5	0x3cd930e3	0.026512569
6	0x3c65660f	0.014001383
7	0x3c1d2908	0.009592302
8	0xbe511794	-0.2041915
9	0x3d80a74c	0.06281909
10	0x39df70fd	0.00042618057
11	0xbdf97569	-0.12180597
12	0x3cc2d585	0.023783455
13	0xbd0dffd7	-0.034667816
14	0x3c83c082	0.016083006
15	0xbce8c8fd	-0.028416151
16	0xbd9f69fa	-0.07783885
17	0xbdcd6f9a	-0.10031052
18	0xbd82d377	-0.0638799
19	0xbdf828a6	-0.12117128
20	0xbe1e4013	-0.1545413
21	0xbdd08c8e	-0.10183059
22	0xbcb5288a	-0.022114057
23	0xbcd9c099	-0.026581096
24	0x3cf088a8	0.029362038
25	0xbdad2940	-0.084551334
26	0xbb16c1e7	-0.0023003758
27	0xbe6c997b	-0.23105423
28	0xbe8fe319	-0.2810295
29	0xbe901c91	-0.28146794
30	0xbe0e187d	-0.13876529
31	0xbdfd7b15	-0.12376992
32	0xbe121bec	-0.14268464
33	0xbd317bc3	-0.04333092
34	0x3d45305a	0.048141815
35	0xbd1681e2	-0.03674496
36	0x3d80e06e	0.062928066
37	0x3d97e218	0.07416171
38	0x3ded9f81	0.116026886
39	0x3def3f1b	0.11681958
40	0x3d493fd9	0.049133155
41	0x3c3ab06f	0.011394604
42	0x3dd3d25e	0.10342859
43	0xbd8f2a46	-0.06990485
44	0xbd539632	-0.05165691
45	0xbc1e486c	-0.009660821
46	0xbd661e77	-0.056181397
47	0xbd05aa70	-0.032633245
48	0xbdaefb17	-0.08543985
49	0x3d5c538a	0.053790607
50	0x3d0f1515	0.034932215
51	0xbb25e883	-0.002531559
52	0xbda838be	-0.08213948
53	0xbe2938c3	-0.16525559
54	0xbdb5035b	-0.08838531
55	0x3e001b4a	0.1251041
56	0x3c626fb7	0.01382058
57	0xbba3eacf	-0.0050023566
58	0x3d897ab4	0.06712857
59	0x3dbe44e1	0.09290481
60	0x3e0408c6	0.12893972
61	0x3ca7429b	0.020417502
62	0xbe0763d3	-0.13221674
63	0xbe3ad52b	-0.1824538
64	0xbe30483c	-0.17215055
65	0xbe01be64	-0.12670285
66	0xbd9120b4	-0.07086316
67	0xbdf1b367	-0.118017964
68	0x3c81130f	0.015756158
69	0xbc99edfb	-0.018790236
70	0x3d39f704	0.045401588
71	0x3d2d95c1	0.042379145
72	0xbdddb51b	-0.10825559
73	0xbc0d695d	-0.008631078
74	0xbe1c8f43	-0.15289025
75	0x3e1748c3	0.1477385
76	0x3e117dc8	0.14208138
77	0x3de0f25f	0.109837286
78	0x3ddef849	0.108872004
79	0x3d98207f	0.07428073
80	0xbcccc7d3	-0.024997627
81	0xbd4ab978	-0.049493283
82	0xbdca7444	-0.09885457
83	0xbdfd358a	-0.123637274
84	0xbd5e2748	-0.05423668
85	0xbce4a402	-0.027910236
86	0xbe2d1924	-0.16904122
87	0xbe1a5362	-0.1507087
88	0xbe338aae	-0.17533371
89	0xbe88f0bd	-0.2674617
90	0x3d5ae907	0.05344489
91	0xbcc0f2cc	-0.023553275
92	0x3e2295ce	0.15877458
93	0xbbc0a115	-0.0058785775
94	0x3ca8ba7d	0.020596737
95	0x3c99f6b2	0.018794391
96	0x3c2d2320	0.0105674565
97	0x3cc15eee	0.023604836
98	0x3d4f901e	0.05067455
99	0x3d8091cc	0.062778085
100	0xbcb541f8	-0.022126183
101	0xbca45680	-0.020060778
102	0xbd888775	-0.066664614
103	0xbbf5c6cf	-0.0075005065
104	0x3c60300f	0.013683333
105	0x3d5a02c3	0.05322529
106	0xbd925347	-0.0714479
107	0x3bf717e8	0.0075406916
108	0xbd31f91b	-0.043450456
109	0xbd26368e	-0.04057937
110	0xbd479ac7	-0.04873159
111	0xbb954948	-0.004555855
112	0x3d12407b	0.035706025
113	0xbdaf0376	-0.08545582
114	0x3d9aa331	0.075506575
115	0x3db9802d	0.09057651
116	0xbcdc7610	-0.026911765
117	0xbc8deb93	-0.017324245
118	0xbd4bc20c	-0.049745604
119	0xbb9c1b49	-0.004763995
120	0xbdd37573	-0.10325136
121	0x3d20211b	0.03909407
122	0x3cf7379c	0.030177884
123	0xbdae15b7	-0.085002355
124	0xbd0d0dd7	-0.034437027
125	0x3cedbc95	0.029020587
126	0xbdd3d4f0	-0.10343349
127	0xbdf77bc4	-0.12084153
128	0x3b85b45e	0.0040803393
129	0x3c42284d	0.011850429
130	0xbbbd7b15	-0.005782495
131	0x3dade67f	0.08491229
132	0xbe08c5fd	-0.13356777
133	0xbe030e8a	-0.12798515
134	0x3dde9c12	0.10869612
135	0x3d8064ca	0.06269224
136	0xba5a7363	-0.0008333234
137	0x3dfcbd94	0.12340847
138	0x3d2214ac	0.039570495
139	0x3cca6b99	0.02470951
140	0x3e0db501	0.13838579
141	0xbd4fbd20	-0.050717473
142	0xbdb44e7d	-0.08804033
143	0x3dcfd28f	0.10147583
144	0x3e7fef6e	0.24993679
145	0x3e5fe58c	0.21864909
146	0xbd5c50bc	-0.05378793
147	0x3de2d52d	0.11075816
148	0x3e52a8a9	0.20572151
149	0xbc8f2426	-0.017473292
150	0xbc2d38e1	-0.010572643
151	0x3de8cc6c	0.113671154
152	0xbd5e1d05	-0.054226894
153	0x3dd174bb	0.10227343
154	0xbc660c09	-0.014040955
155	0x3db1298a	0.08650501
156	0x3db91be3	0.09038522
157	0xbad3b355	-0.0016151468
158	0x3bb9b6c7	0.0056675407
159	0xbcac438e	-0.021028306
160	0x3d3c0946	0.04590728
161	0x3d069d3e	0.0328648
162	0x3df066c1	0.11738349
163	0x3d03698b	0.032083075
164	0x3d645e2a	0.055753864
165	0x3bd06e0e	0.006360776
166	0x3d17b423	0.037037026
167	0xbe3119eb	-0.17295043
168	0x3de34fcd	0.11099205
169	0x3cedea55	0.029042402
170	0xbdb60d32	-0.088892356
171	0xbe224b8c	-0.15849131
172	0xbdf2561c	-0.1183283
173	0x3c1801cf	0.009277775
174	0xbe0cc5a1	-0.13747264
175	0xbe12d900	-0.14340591
176	0xbcf56f9c	-0.029960446
177	0x3daeac3f	0.08528947
178	0xbdc9ef3c	-0.098600835
179	0xbc869bef	-0.016431777
180	0x3cfa2b92	0.030538354
181	0xbd30dade	-0.043177478
182	0xbd358a96	-0.04432162
183	0xbe1488f9	-0.14505376
184	0xbdd397c6	-0.10331683
185	0x3e01a437	0.12660299
186	0x3bde0c64	0.0067763794
187	0xbbf14c73	-0.00736385
188	0x3d0dc6db	0.03461347
189	0xbda47b4b	-0.08031329
190	0x3db2f34c	0.087378114
191	0x3d8f91dd	0.07010243
192	0xbdd58328	-0.10425407
193	0x3d768195	0.060182173
194	0x3cc27ca9	0.023741083
195	0xbd8d7358	-0.06906766
196	0xbc75a37d	-0.014992592
197	0x3df3b68c	0.119000524
198	0x3d930292	0.071782246
199	0xbd5e952a	-0.054341473
200	0xbd7e2e7f	-0.06205606
201	0xbcaaa590	-0.0208309
202	0x3d02afbc	0.031905875
203	0xbe12c4b2	-0.14332846
204	0xbd831358	-0.06400174
205	0x3d407a73	0.046991777
206	0xbdbd1ae8	-0.092336476
207	0x3d431db1	0.047635738
208	0x3e129b72	0.1431711
209	0x3d00253d	0.031285513
210	0x3e2533b1	0.16133
211	0x3e05a735	0.13052066
212	0xbd67e539	-0.056615088
213	0x3dcabcec	0.09899315
214	0x3da56c02	0.080772415
215	0xbdf8a5ef	-0.12141024
216	0xbb5a4648	-0.003330605
217	0x3c96ff41	0.018432261
218	0x3d981b9b	0.0742714
219	0x3d9ff6dc	0.078107566
220	0xbd078a63	-0.03309096
221	0xbc721ae8	-0.014776923
222	0x3d841ade	0.06450437
223	0xbe0a917f	-0.13532065
224	0xbe487493	-0.1957572
225	0x3d32af90	0.04362446
226	0x3db6d571	0.089274295
227	0x3b9d55b5	0.004801477
228	0xbd84a9ac	-0.06477675
229	0x3c291550	0.010320023
230	0x3c4f6435	0.012658169
231	0xbdf78133	-0.1208519
232	0xbe0bfaed	-0.1366994
233	0x3bdd117a	0.006746468
234	0xbe2c3bab	-0.16819637
235	0xbe0d6026	-0.13806209
236	0xbe5c8aa9	-0.2153727
237	0xbdb1806b	-0.08667072
238	0xbd8a3921	-0.06749178
239	0xbd8c3f3a	-0.06847997
240	0x3dae0165	0.0849636
241	0x3d9632d4	0.073339134
242	0xbbebd9d5	-0.0071975985
243	0xbead400c	-0.33837926
244	0xbe2e1834	-0.1700142
245	0xbe80ffef	-0.25195262
246	0xbe0ed357	-0.13947807
247	0xbdcae4e7	-0.09906941
248	0xbd884247	-0.066532664
249	0x3e235f14	0.15954238
250	0xbc951c1a	-0.018201876
251	0xbde6e380	-0.11273861
252	0x3ddc28bb	0.10749956
253	0x3e05b8cc	0.13058776
254	0x3d7d30b5	0.06181403
255	0x3e0ae7e0	0.13565016

img_enc.block2.conv1.bias f4 [24]
0	0x3d96c73f	0.07362222
1	0xbd7679ac	-0.06017463
2	0xbd205bd3	-0.03915007
3	0x3cd03dc6	0.02542008
4	0x3b88bd93	0.0041729896
5	0xbc00cc98	-0.007861279
6	0xbd97410c	-0.073854536
7	0x3d6d8a8a	0.05799345
8	0x3cc5b9f4	0.02413652
9	0xbda9d121	-0.08291841
10	0x3d8e93e8	0.06961805
11	0xbd2404c7	-0.04004362
12	0xbc1149ae	-0.008867664
13	0xbd588724	-0.052863255
14	0x3dcc9e17	0.09991091
15	0xbd1854bf	-0.037190195
16	0xbc22c140	-0.00993377
17	0x3da2bead	0.07946525
18	0xbd1a0466	-0.03760185
19	0x3d98bed9	0.07458276
20	0x3d08ba51	0.03338081
21	0x3dd82dd4	0.10555616
22	0x3d528329	0.051394615
23	0xbd31a31c	-0.043368444

img_enc.block2.bn1.weight f4 [24]
0	0x3f8a0cd5	1.0785166
1	0x3f61e68a	0.882424
2	0x3f95e1a1	1.1709481
3	0x3f88de5f	1.0692862
4	0x3f604597	0.87606186
5	0x3f6c99e1	0.924223
6	0x3f42b257	0.76053375
7	0x3f7d4aee	0.9894246
8	0x3f866a52	1.0501196
9	0x3f735f01	0.9506684
10	0x3f8b91ec	1.0903907
11	0x3f9086dc	1.1291156
12	0x3f5dd7fb	0.86657685
13	0x3f805513	1.0025963
14	0x3f65647a	0.8960644
15	0x3f4ff971	0.8123999
16	0x3f411b1d	0.75431997
17	0x3f7e16b2	0.9925338
18	0x3f850a02	1.0393679
19	0x3f7fa2d7	0.9985785
20	0x3f7f1df6	0.9965509
21	0x3f83a387	1.028428
22	0x3f7dfb0d	0.992112
23	0x3f870277	1.0547627

img_enc.block2.bn1.bias f4 [24]
0	0xbd937fef	-0.07202136
1	0xbe26def3	-0.16295986
2	0xbdace733	-0.08442535
3	0xbe47c98e	-0.19510481
4	0xbe8ad589	-0.2711604
5	0xbe4dd176	-0.20099434
6	0xbe844ed2	-0.25841385
7	0xbd74191d	-0.059594262
8	0xbe2dcb1e	-0.16972014
9	0xbddd2d33	-0.10799637
10	0xbe7009b0	-0.23441195
11	0xbd51f562	-0.051259406
12	0xbe541600	-0.20711517
13	0xbd4c1682	-0.049826153
14	0xbe43136e	-0.1905038
15	0xbe2cc21c	-0.16870922
16	0xbe846f6c	-0.25866258
17	0xbe0c63a1	-0.1370988
18	0xbe35b42d	-0.17744513
19	0xbe4b07e2	-0.19827226
20	0xbe048bf1	-0.12944008
21	0xbc2aff0b	-0.010436784
22	0xbe8364c5	-0.2566282
23	0x3ca6dbb9	0.020368444

img_enc.block2.bn1.running_mean f4 [24]
0	0xbe466409	-0.19374098
1	0xbf89f407	-1.0777596
2	0xbe6e9c95	-0.23301919
3	0x3df96f97	0.12179487
4	0x369ecf95	4.7329327e-06
5	0x3e5d595d	0.2161612
6	0xbefe75d2	-0.49699265
7	0xbf0f7dbc	-0.5605123
8	0x3e97a0ed	0.29614964
9	0xbf550e50	-0.83224964
10	0x3dbc1a27	0.09184676
11	0xbf9c97dd	-1.2233845
12	0xbf9387f1	-1.1525861
13	0xbf733853	-0.9500782
14	0x3eb27dd5	0.34861627
15	0xbf338322	-0.7012197
16	0xbd406807	-0.04697421
17	0xbf080766	-0.5313629
18	0xbd17581c	-0.036949262
19	0xbf1e13d8	-0.6174903
20	0xbf320132	-0.69533074
21	0xbef3f096	-0.4764449
22	0xbe25e9de	-0.16202495
23	0xbf8b5680	-1.0885773

img_enc.block2.bn1.running_var f4 [24]
0	0x4153fc5d	13.249112
1	0x40e0535f	7.010177
2	0x413d6c17	11.838889
3	0x40dc415d	6.882979
4	0x40d349a7	6.602741
5	0x40fbf1cc	7.873266
6	0x40bc3748	5.881748
7	0x414a5d1b	12.647731
8	0x40cca68d	6.395331
9	0x41019a72	8.100206
10	0x410958a1	8.584138
11	0x4128ff3c	10.562313
12	0x41196ea8	9.589516
13	0x40920b04	4.5638447
14	0x40bfe2f8	5.996456
15	0x40c0cef6	6.025264
16	0x409e74db	4.9517646
17	0x40f21bb8	7.5658836
18	0x40b1f361	5.5609593
19	0x40cc9a83	6.3938613
20	0x4124de7a	10.304316
21	0x40ee9df1	7.45678
22	0x4060b978	3.51132
23	0x415cd8d7	13.802939

img_enc.block2.conv2.weight f4 [24, 24, 3, 3]
0	0x3e13682c	0.14395207
1	0x3e2b08af	0.16702531
2	0x3e09e342	0.13465598
3	0x3d8ee524	0.06977299
4	0x3de8d484	0.11368659
5	0x3ddb3066	0.10702591
6	0x3e017ede	0.12646052
7	0x3d089653	0.033346485
8	0x3ce755b8	0.028239116
9	0xbdd92896	-0.10603444
10	0x3cc98448	0.02459921
11	0xbcf68a3a	-0.030095208
12	0x3d339327	0.043841507
13	0x3dac1c4a	0.08403833
14	0x3d988252	0.074467316
15	0x3959e2d3	0.00020779231
16	0x3dec26cf	0.1153084
17	0x3dac44c3	0.08411553
18	0x3d81f6bb	0.06345888
19	0x3d5cd925	0.053918023
20	0x3e0a0ec9	0.13482203
21	0x3d8e84ca	0.06958921
22	0x3db19db9	0.08672661
23	0x3d9456aa	0.07243092
24	0x3df11cb6	0.11773054
25	0x3daa2655	0.083080925
26	0x3b105298	0.0022021886
27	0x3cf26f75	0.029594162
28	0x3d4721b5	0.04861613
29	0xbdd0885c	-0.101822585
30	0xbd44d2d8	-0.04805264
31	0xbb8efd09	-0.0043636602
32	0xbe221cb6	-0.15831265
33	0xbd4c8ec5	-0.049940843
34	0xbdaa42d2	-0.08313526
35	0xbdfc1022	-0.123077646
36	0x3d2dd71b	0.04244147
37	0xbd4c3a5b	-0.04986034
38	0x3d33ad4d	0.043866444
39	0x3d555053	0.052078556
40	0x3dd4491e	0.103655085
41	0x3cac775b	0.021053007
42	0x3bf956b2	0.007609212
43	0x3dc01483	0.09378912
44	0x3d982574	0.074290186
45	0xbabc456e	-0.0014363953
46	0xbd2dc02b	-0.042419594
47	0xbb2a08b6	-0.0025945134
48	0x3b562b8a	0.003267976
49	0xbd140f24	-0.03614725
50	0x3c465dd8	0.012107335
51	0xbc18fb44	-0.00933725
52	0x3b3879f7	0.0028148869
53	0x3cf3e43f	0.029771922
54	0xbd11b992	-0.035577364
55	0xbb4f44cc	-0.00316267
56	0xbd88b680	-0.06675434
57	0xbd59f51d	-0.053212274
58	0x3ce6cb28	0.028173044
59	0x3c2778af	0.010221644
60	0xbc006e29	-0.007838764
61	0xbd964a27	-0.07338362
62	0xbd640a4e	-0.05567389
63	0x3dbcedfd	0.0922508
64	0x3d192480	0.037388325
65	0x3ddd41c0	0.108035564
66	0x3e19b8fb	0.1501197
67	0x3db098fe	0.08622931
68	0x3d011fef	0.031524595
69	0x3df50cb0	0.119653106
70	0x3dea364f	0.1143614
71	0x3dad5c6d	0.084648944
72	0x3b093b2c	0.002093981
73	0x3dc5191a	0.09623928
74	0x3de2134d	0.110388376
75	0x3d6c4565	0.057683367
76	0x3cc16186	0.023606073
77	0x3d6e1144	0.058121935
78	0x3b9e86df	0.004837855
79	0x3c4497d7	0.011999092
80	0xbd908aeb	-0.070577465
81	0xbdfd11a3	-0.123568796
82	0xbe105184	-0.14093596
83	0xbe263e92	-0.16234806
84	0xbdb56fd6	-0.08859222
85	0xbde0eb26	-0.10982351
86	0xbd242ee4	-0.04008378
87	0xbdbac775	-0.09120075
88	0xbde833aa	-0.11337979
89	0xbcced31c	-0.02524715
90	0xbdae0cd3	-0.0849854
91	0x3ceb236c	0.028703414
92	0xbc10f2cb	-0.008846949
93	0xbde52322	-0.11188342
94	0xbde56e0c	-0.112026304
95	0xbe318114	-0.17334396
96	0xbe05ec56	-0.13078436
97	0xbdea04e7	-0.11426716
98	0xbe2ea868	-0.1705643
99	0xbcb4e8a6	-0.022083592
100	0x3d44ea03	0.048074733
101	0x3c679714	0.014135141
102	0xbd4c475b	-0.049872737
103	0x3d840134	0.06445542
104	0x3c91536b	0.017739972
105	0xbc9ffe7d	-0.01953053
106	0x3da029f8	0.07820505
107	0x3d9f2eca	0.07772596
108	0xbddaa752	-0.10676445
109	0xbd88c540	-0.066782475
110	0xbdfdeed9	-0.12399072
111	0xbd9b06ee	-0.07569681
112	0xbdae977c	-0.08524987
113	0x3be3cceb	0.0069519184
114	0x3bd24e8b	0.0064180545
115	0xbd9d257e	-0.07673167
116	0xbd53d2ff	-0.051714893
117	0xbe533009	-0.20623793
118	0xbe34c531	-0.17653348
119	0xbe47c12b	-0.19507281
120	0xbe5c62c0	-0.21522045
121	0xbe2b8c78	-0.16752803
122	0xbe39fdad	-0.18163176
123	0xbd705466	-0.05867424
124	0x3cf440fe	0.029816147
125	0xbd31bc60	-0.04339254
126	0x3d404d0f	0.04694849
127	0x3d03c2f6	0.03216835
128	0xbb9952bf	-0.0046790536
129	0x3cf1dffd	0.029525751
130	0xbd490ba6	-0.049083374
131	0xbdb22242	-0.086979404
132	0x3d292f1f	0.041304704
133	0xbd98c698	-0.07459754
134	0xbdd45fec	-0.10369858
135	0x3d8d3128	0.068941414
136	0x3c407853	0.0117474375
137	0xbd504517	-0.05084714
138	0xbc1390ec	-0.00900672
139	0xbccff49c	-0.025385194
140	0x3d03d43e	0.03218483
141	0x3d7c6e13	0.061628412
142	0xbc3391ee	-0.010960085
143	0x3db89083	0.090119384
144	0xbd5b1bc5	-0.05349328
145	0xbdb9f2d9	-0.09079523
146	0xbcc4ecdb	-0.024038723
147	0xbce24781	-0.027621986
148	0xbdc9d520	-0.098551035
149	0xbdeae51e	-0.11469482
150	0xbdead396	-0.11466138
151	0x3b1c9129	0.0023890233
152	0xbd8bf1f1	-0.06833256
153	0xbba5febc	-0.005065767
154	0x3cd51e1f	0.02601534
155	0xbd3ae2f1	-0.045626584
156	0x3cc8ca8d	0.024510646
157	0x3d565470	0.05232662
158	0xbd8c5a04	-0.068531066
159	0x3b17d43f	0.002316728
160	0xbd75967a	-0.05995796
161	0x3d291291	0.041277472
162	0x3d12d381	0.035846237
163	0x3dc635fd	0.09678266
164	0x3d113943	0.035455
165	0x3da0929b	0.07840463
166	0x3ce3d09e	0.027809437
167	0x3d41c3a9	0.047305737
168	0x3e1fa627	0.15590726
169	0x3e023a82	0.12717631
170	0x3c8c6f3f	0.01714289
171	0xbde72d48	-0.112879336
172	0xbdddb5fc	-0.108257264
173	0xbcfe5fc5	-0.031051526
174	0xbdda70e9	-0.10666067
175	0xbda084d2	-0.078378335
176	0xbd58d9c8	-0.052942067
177	0xbdaf77e3	-0.085677885
178	0xbd15cd84	-0.036572948
179	0xbd3ab3df	-0.045581695
180	0xbd454b91	-0.04816777
181	0x3c921c28	0.017835692
182	0xbcc75b35	-0.024335483
183	0x3d58d214	0.05293472
184	0x3afac81f	0.0019133127
185	0x3db8f828	0.09031707
186	0x3cf8847d	0.030336613
187	0x3cb98e55	0.022650877
188	0x3db7c3fd	0.08972929
189	0xbd929511	-0.071573384
190	0xbde47064	-0.11154249
191	0xbd946478	-0.072457254
192	0xbdd544d0	-0.104135156
193	0xbe021ba1	-0.12705852
194	0xbe23421b	-0.15943186
195	0xbce235b6	-0.027613502
196	0xba49ad38	-0.0007693353
197	0xbb808601	-0.0039222245
198	0xbd8dbef0	-0.06921184
199	0xbcb1b72f	-0.021693794
200	0x3d1ba5de	0.03799998
201	0xbd774b78	-0.060374707
202	0xbd35aa29	-0.04435173
203	0xbd70fbbb	-0.05883382
204	0x3c87440c	0.01651194
205	0xbd9695ad	-0.07352767
206	0xbe1860ab	-0.14880626
207	0xbda5443a	-0.08069654
208	0xbd6eb4ed	-0.058278013
209	0x3be20677	0.0068977433
210	0xbe08bbbb	-0.13352863
211	0xbd984ed1	-0.07436908
212	0x3d043a86	0.032282375
213	0xbdc516a9	-0.09623463
214	0xbd9a0f37	-0.07522433
215	0x3b25c60a	0.0025295042
216	0x3decf5d1	0.11570323
217	0x3df62807	0.12019353
218	0x3e23ee56	0.16008887
219	0x3ced06ea	0.028933961
220	0x3ddf84da	0.10914011
221	0x3d71358f	0.058888968
222	0x3d3e5d67	0.046475794
223	0x3d90495f	0.070452444
224	0xbc12ba53	-0.008955556
225	0xbd975af3	-0.07390394
226	0xbe0f3e3f	-0.13988589
227	0xbdb8d072	-0.09024133
228	0xbc5dbc5e	-0.01353368
229	0xbdafad68	-0.085779965
230	0xbdfe74b5	-0.12424604
231	0x3d0a26fc	0.033728585
232	0xbd6d173b	-0.057883482
233	0xbd8e56e7	-0.06950169
234	0x3d9000de	0.070314154
235	0x3d9164fb	0.070993386
236	0x3e3fccaa	0.18730417
237	0x3d58845c	0.052860603
238	0x3db5884f	0.088638894
239	0x3d2644b3	0.04059286
240	0x3b0c4295	0.002140199
241	0x3cf2acf3	0.029623484
242	0x3d60d4c6	0.054890417
243	0xbd0e3fd9	-0.03472886
244	0xbdba4b03	-0.090963386
245	0xbc1bc16b	-0.009506564
246	0xbc595e06	-0.013267046
247	0xbd7180ae	-0.05896061
248	0xbd8fd1f1	-0.07022465
249	0xbd6d1dee	-0.05788987
250	0xbe226fb0	-0.15862918
251	0xbe237f9c	-0.15966648
252	0xbd3ac94c	-0.045602128
253	0x3d392d0a	0.04520897
254	0xbd26999d	-0.04067384
255	0x3d3f8f84	0.046767727

img_enc.block2.conv2.bias f4 [24]
0	0xbc857991	-0.016293319
1	0xbd15d43e	-0.036579363
2	0xbd072caf	-0.033001598
3	0x3d287b1e	0.04113304
4	0x3d5aca7f	0.05341577
5	0xbc5d3526	-0.013501441
6	0x3d617265	0.055040736
7	0x3d07892a	0.033089794
8	0x3d5f9b6c	0.05459158
9	0x3d9fc321	0.0780089
10	0x3c905680	0.017619371
11	0xbbb913d7	-0.005648117
12	0xbc331d8e	-0.010932339
13	0x3d73aa49	0.05948857
14	0xbc806ff3	-0.015678382
15	0x3c57e1f6	0.013176432
16	0xbdad054d	-0.08448277
17	0xbd844959	-0.064593025
18	0x3cc2aa2c	0.023762785
19	0x3d641353	0.05568249
20	0x3d56b1cf	0.052415665
21	0xbce8ce10	-0.02841857
22	0x3c6ffc74	0.014647592
23	0xbc4f2724	-0.012643609

img_enc.block2.bn2.weight f4 [24]
0	0x3f92fcb1	1.1483365
1	0x3f8ee1d1	1.1162664
2	0x3f7c9a08	0.98672533
3	0x3f8fbe1f	1.1229895
4	0x3f89a4e6	1.0753448
5	0x3f6c00eb	0.921889
6	0x3f604dd9	0.87618786
7	0x3f7f01f5	0.9961236
8	0x3f8c035a	1.0938523
9	0x3f63523c	0.88797355
10	0x3f6e44f4	0.93073964
11	0x3f8036dd	1.0016743
12	0x3f644bdd	0.8917826
13	0x3f815e66	1.0106933
14	0x3f9163a9	1.1358539
15	0x3f6fefa9	0.9372507
16	0x3f93d13c	1.1548228
17	0x3f8290c8	1.0200434
18	0x3f8d7df9	1.1054069
19	0x3f6934f5	0.9109643
20	0x3f7e71cb	0.99392384
21	0x3f829c2d	1.0203911
22	0x3f873785	1.0563818
23	0x3f609e48	0.8774152

img_enc.block2.bn2.bias f4 [24]
0	0xbb26a5d9	-0.0025428443
1	0xbc15ae60	-0.0091358125
2	0x3d78ba57	0.060724583
3	0x3d93ee0d	0.07223139
4	0xbd816a88	-0.06319147
5	0x3dc1cb78	0.09462637
6	0x3dae07f7	0.08497613
7	0xbcb67171	-0.02227089
8	0x3d952c83	0.072838806
9	0xbda5b52c	-0.080911964
10	0xbdfb89c9	-0.1228214
11	0x3d1fa5e4	0.038976565
12	0x3d0dda49	0.034632
13	0x3d84a541	0.06476832
14	0x3d11e00c	0.03561406
15	0x3cc07c53	0.023496782
16	0x3d8f8933	0.070085905
17	0x3b9f6184	0.0048639197
18	0xbd1827a9	-0.037147198
19	0x3c9bf549	0.01903786
20	0x3bb23398	0.0054382794
21	0x3d086664	0.033300772
22	0x3d6aa3b5	0.05728503
23	0xbb9e5b48	-0.004832659
